part2-pytorch/checkpoints/vanillacnn.pth (torch, 237480 bytes, 4 tensors)

conv_one.weight f4 [32, 3, 7, 7]
000000 14 35 5f bd c7 dc 54 bd 39 04 a0 bd 44 ae 3f 3d
       -0.05449398 -0.051968362 -0.078133054 0.046797052
000010 f9 85 8b 3c f0 ab 2b 3d a9 79 55 3d 94 43 80 3d
       0.017031657 0.04191202 0.052117977 0.062628895
000020 bb c8 91 bd f4 52 c6 3c 41 16 5d 3d 45 9d 82 bd
       -0.071183644 0.024209477 0.0539763 -0.06377653
000030 74 f7 01 bd a7 81 f2 3c 33 d5 0c 3d 2d 88 62 bd
       -0.03173013 0.029602839 0.03438301 -0.05530565
000040 c9 2c d2 bc 41 31 19 bd 13 26 2c bd b7 bc 97 bd
       -0.02565612 -0.037400488 -0.042028498 -0.074090414
000050 7b ac ed 39 91 f1 61 3d 0a 1a 9f 3d 79 66 21 bd
       0.0004533267 0.055162016 0.077686384 -0.039404366
000060 74 48 8d 3c 2a e9 af 3c 50 1d 45 bd 67 0f c6 3b
       0.017246462 0.021473486 -0.048123658 0.0060443166
000070 47 9e af 3d f9 2b 83 3c 2a 54 87 ba 74 00 99 bd
       0.08575111 0.016012179 -0.0010324765 -0.074707896
000080 cf 91 60 3d 70 60 39 3a 77 9b 76 bd f9 69 51 bd
       0.054826554 0.000707156 -0.060206857 -0.051126454
000090 7c 37 88 3d 7a 70 26 bd 25 13 74 bd c6 a1 21 3d
       0.06651208 -0.04063461 -0.05958857 0.03946092
0000a0 d6 07 4e 3d 91 57 3b 3d 50 28 99 3d 3e 19 59 bb
       0.05030044 0.045737807 0.07478392 -0.0033126618
0000b0 11 c6 2e bc d3 43 b9 3c 01 08 a9 3d d9 5e 61 bd
       -0.01066734 0.022615349 0.0825348 -0.055022094
0000c0 a9 e7 d8 bc 89 af 30 bd 5f cd dc bc 76 e7 0a 3d
       -0.026477652 -0.043136153 -0.026953397 0.033912145
0000d0 06 90 61 bd 0d 25 44 bd e6 ad 54 3d 29 5f dc 3c
       -0.055068992 -0.047886897 0.051923655 0.026900845
0000e0 49 3f 98 bd 5e bc a3 3c 26 42 11 3d 0d dc 64 3d
       -0.07433946 0.019987281 0.035463475 0.05587392
0000f0 7c 17 59 3d 6a 08 0c bd 3f 23 04 3d 5f fc 66 bd
       0.053000912 -0.03418771 0.032260176 -0.056393024
000100 61 63 97 bd 58 ce 7f bd dd a4 12 3c 20 e3 d7 bc
       -0.07392002 -0.062452644 0.008950439 -0.026353419
000110 60 c4 c2 3c 95 78 55 3d 86 f9 cd 3c 7b 7b bf bc
       0.02377528 0.05211695 0.025143396 -0.02337431
000120 7d 32 32 3d a9 26 87 bd c4 4e e5 bb 9c 94 76 3d
       0.04350518 -0.06599171 -0.006997915 0.06020032
000130 31 c0 4e 3d 14 90 22 bd b1 e7 83 bc a5 79 32 bd
       0.050476257 -0.039688185 -0.01610169 -0.04357304
000140 0b 2c 9b 3c 5e b6 bb 3c da 3b eb bb 9f 91 63 3d
       0.0189419 0.022914108 -0.0071787657 0.055558797
000150 09 71 07 3d b8 cd f8 bc f2 3c 22 bc 66 9c 18 3d
       0.033066783 -0.030371532 -0.009902226 0.03725853
000160 1e 8c 82 bd e9 dd 00 3b 7d 7e 99 3d 23 56 ca bb
       -0.063743815 0.0019663519 0.07494829 -0.006174819
000170 b9 d3 16 3d 85 07 81 bd 82 30 81 3d ef 0d 62 bd
       0.03682301 -0.06300262 0.0630808 -0.05518907
000180 08 b9 8d bd e4 bd 42 bd 1c b6 21 3d 55 f7 9d bd
       -0.069200575 -0.047544375 0.039480314 -0.077131905
000190 3c e0 04 bd 9b 21 24 bd aa 69 29 3b 74 22 2c 3d
       -0.03244041 -0.04007111 0.0025850334 0.042025045
0001a0 72 63 1c 3d 00 53 d5 3b 50 97 85 bd 4e 14 76 3d
       0.038180776 0.0065101385 -0.06523001 0.060077958
0001b0 41 7e 99 bd 7f 6d 8f bd 59 10 ac bd 52 2b a8 bd
       -0.07494784 -0.070033066 -0.084015556 -0.08211388
0001c0 72 db 87 3d 60 57 4d 3d ba 7f 69 3d 50 6c 8d 3d
       0.06633653 0.050132155 0.057006575 0.069054246
0001d0 4a 5d e9 bc 6f da 84 bd e8 61 ab 3c a1 48 1c 3d
       -0.028486867 -0.064869754 0.020920709 0.0381552
0001e0 0d 5d 89 bc 24 d2 4b bd 60 4e 68 bd 4b 25 ca 3c
       -0.016768003 -0.049760953 -0.05671537 0.024675986
0001f0 7f 39 e6 3c 4b d0 57 bc 99 f7 5b bc e5 ba aa bd
       0.028103588 -0.0131722195 -0.013425731 -0.083364286
000200 a6 d0 93 3d 4b d0 80 bd 4a f3 48 bd d7 71 97 bd
       0.07217531 -0.06289729 -0.049060144 -0.0739476
000210 72 b9 65 bd f2 b4 61 bd bf fb 6e ba 1d 52 d8 3b
       -0.056085058 -0.055104204 -0.00091164926 0.0066015855
000220 8e b1 95 3d d6 40 d1 bc 68 0c 3d bd 0a fd 55 3c
       0.073092565 -0.025543611 -0.04615441 0.0130608175
000230 ae d8 9b bd e6 ae 06 3c 99 d6 27 bd 78 4d 3a bd
       -0.07609688 0.00822041 -0.04097614 -0.045484036
000240 c5 ec 05 3d eb 8d 57 bd ce 5f 80 bd ad f9 35 bb
       0.032696504 -0.052625578 -0.06268273 -0.0027767227
000250 88 3c fe 3b 01 86 60 bc 8c 98 02 bc d9 58 a2 bd
       0.0077586807 -0.013703824 -0.00797094 -0.079271026
000260 20 60 84 3d b1 a5 43 bc a2 d6 87 3d d1 96 17 bd
       0.06463647 -0.011941359 0.06632735 -0.037009064
000270 f1 c3 0b bc 1c 80 9b 3c 8c 17 01 3d 15 2c fc 3c
       -0.008530603 0.018981986 0.031516597 0.030782739
000280 16 c5 f6 bb 00 f0 60 3d 1e ab 87 bc dd c0 95 3d
       -0.0075308187 0.05491638 -0.016561087 0.073121764
000290 7d 34 79 3d 24 30 25 3d b9 ad 20 3d e1 ae aa bd
       0.060841072 0.040329114 0.039228175 -0.08334137
0002a0 3d 7c 14 3d cd ed 9c bd 2e db aa bd 4e be 79 bd
       0.036251295 -0.076625444 -0.083425865 -0.060972504
0002b0 f0 34 70 3d 06 72 95 bd 23 87 73 bd a1 5b ea 3b
       0.058644235 -0.07297139 -0.05945505 0.0071520363
0002c0 d9 bc 87 3b b2 f1 b6 3c 61 e1 06 bd 89 2c 04 3d
       0.0041423854 0.022332046 -0.03292978 0.032269035
0002d0 11 c1 43 3d fe f4 8a 3c 44 dc 5d 3d 12 b0 99 3d
       0.047791544 0.016962525 0.05416514 0.07504286
0002e0 24 85 1d 3d a9 a5 17 bd d9 bd ab 3c c1 30 60 bd
       0.03845705 -0.03702322 0.02096455 -0.054733995
0002f0 1f 9f 4c 3d e3 ed 7b 3d 92 5a a4 3d dc 4b c9 3c
       0.049956437 0.061506163 0.080250874 0.024572305
000300 51 9a 98 bd 48 db 27 3d ef df 38 3d 14 b8 94 bd
       -0.074513085 0.040980607 0.045135435 -0.072616726
000310 e7 13 5c bc c6 4f 6f bc 00 b2 c4 3c 35 5b 9b 3d
       -0.013432479 -0.014606422 0.024010658 0.07585756
000320 5d 95 2b bd 06 5b 89 3d 82 66 e8 bc 66 db a5 3b
       -0.04189049 0.067068145 -0.028369192 0.0050615547
000330 c9 c5 b0 3a 77 a2 1e bd a5 e7 28 bd 1b 25 7c bc
       0.0013486679 -0.038729157 -0.04123654 -0.015389706
000340 6c dd de bc fd 4e 6f 3d 17 44 32 3d b5 34 65 bd
       -0.027205192 0.05842494 0.043521967 -0.05595847
000350 50 ba 14 bc d9 a2 49 3d b1 a9 65 3c bf 4d 10 bd
       -0.0090776235 0.04922757 0.014017508 -0.035230394
000360 58 33 b7 bc 20 c3 14 3d 54 b3 1e 3d 78 97 98 bd
       -0.02236335 0.0363189 0.03874524 -0.07450765
000370 5a 5e 6c bc 74 ef 59 bd 7f eb 8f bd 0b 71 65 3d
       -0.014426792 -0.053206876 -0.07027339 0.05601601
000380 52 48 7d 3d ff 83 12 bd d5 eb 44 bd f7 2e 70 bd
       0.06183655 -0.035770413 -0.04807647 -0.05863854
000390 50 0c c1 3b 74 34 81 3d ee 03 3b 3c 0d 06 5d bc
       0.0058913603 0.06308833 0.011414511 -0.013490212
0003a0 85 f8 b0 3b 0d e0 6d 3b 78 15 37 bc 7a 3a 9c 3d
       0.0054007196 0.0036296875 -0.011174552 0.07628341
0003b0 30 4c 2e bc 98 21 66 bd 7d 10 38 bc 22 45 9e bd
       -0.010638282 -0.05618438 -0.0112344 -0.0772803
0003c0 5f 9e b6 3b b4 b4 6f bc cc 33 e1 3c b3 20 5f bd
       0.0055730785 -0.014630485 0.027490519 -0.054474544
0003d0 38 5a 90 3c 47 a2 84 3d c0 bd a1 3d a7 6f 31 bc
       0.017621145 0.064762644 0.0789752 -0.010829843
0003e0 09 be d7 bb 92 02 08 bd 17 25 26 bd 9a 9d 9c bc
       -0.0065839333 -0.033205576 -0.040562715 -0.019118119
0003f0 ec 54 95 bd af 87 a7 3d b5 24 91 bd 77 17 9e 3d
       -0.07291588 0.081801765 -0.070870794 0.07719319

conv_one.bias f4 [32]
000000 4e f2 3b bc a7 69 a6 3d cb cb dd bc f3 51 9c 3d
       -0.011471344 0.0812562 -0.027074715 0.07632818
000010 d3 71 9b 3c 14 af aa 3c f7 ab 5f bd ab a1 72 bc
       0.018975174 0.020835437 -0.054607358 -0.014809052
000020 f3 17 a9 3d 71 7d 85 bd 4c 5a 4a bd 41 d8 f0 ba
       0.08256521 -0.06518067 -0.04940252 -0.0018374996
000030 4c 58 db 3c 76 55 9d bd 37 45 90 bc 49 7f 0a bb
       0.026775502 -0.07682316 -0.01761113 -0.0021132997
000040 3c f5 10 3d d5 30 0a 3d 1b c3 47 bd 1d 66 62 3d
       0.035390124 0.033737976 -0.04877005 0.055273164
000050 67 45 34 3c a3 96 86 bd 8e 88 4b 3c 12 de 6d bc
       0.011002875 -0.065717004 0.012422694 -0.014518278
000060 d6 3d 7d bd 8d 2a 8f bd 09 ec 82 bd f8 3c ba 3b
       -0.06182655 -0.06990538 -0.063926764 0.0056835376
000070 47 6a 9a 3c 57 b2 94 3d 88 09 8e 3d 53 a2 35 bd
       0.018849505 0.07260578 0.06935412 -0.044344258

fully.weight f4 [10, 5408]
000000 18 cb 96 3a 87 c9 d6 3a 0c bb c0 bb 49 0f 3a bb
       0.0011504618 0.0016386964 -0.0058816727 -0.0028390458
000010 89 58 19 3c 4d 83 1b bb 15 39 0f bb fc 44 17 3b
       0.009359487 -0.0023729384 -0.0021854092 0.002308189
000020 08 a7 52 bb cb 5e 2a bc fd fd 3d 3b 76 d2 87 bc
       -0.0032143015 -0.010398577 0.00289905 -0.016579848
000030 e0 a8 45 bc 6c 6b 0c 3c 7b e1 8e 3b f7 0e 3c bc
       -0.012064189 0.008570533 0.0043603755 -0.011478177
000040 96 45 7f bb 7c e4 36 3b a3 6a e2 3b 1b 46 5b 3b
       -0.0038951389 0.0027907183 0.0069096847 0.0033458534
000050 11 d2 ec 3b a0 2e 5e bc cb c2 74 3b 3a da ac bb
       0.0072271903 -0.013560921 0.003734755 -0.005275038
000060 a8 66 f7 3b 00 e2 7f bc 14 f5 f2 ba a8 51 8c bc
       0.0075500794 -0.015617847 -0.0018536174 -0.01712878
000070 3e c4 0e 3c 69 22 36 3c 24 f1 10 3c 43 03 41 3c
       0.00871378 0.011116602 0.008846555 0.011780563
000080 19 d5 40 bc 1a 0a 58 bc 51 a9 fb 3b df 81 6f bc
       -0.011769556 -0.013186002 0.007680096 -0.014618366
000090 3e 47 12 bc 2a 72 03 bc 09 1f 8d bc 67 6c b0 3b
       -0.008928118 -0.008022824 -0.017226713 0.0053840163
0000a0 0b 68 4b 3b 44 b2 fe bb 33 9e 18 3b 15 23 2e bc
       0.0031037356 -0.0077727158 0.0023287653 -0.010628481
0000b0 6b 27 1f 3c b6 c8 18 3c 66 59 d1 3b 86 a6 3f bc
       0.009713988 0.009325197 0.006388831 -0.011697417
0000c0 2c 78 09 ba bf 95 34 bc cd a7 f4 3b e3 31 06 ba
       -0.0005244042 -0.01102203 0.0074662925 -0.0005119128
0000d0 ed 62 4c b8 d9 68 b3 3b 08 73 21 3c 8a 6e 7b 3b
       -4.8729522e-05 0.0054751453 0.009854086 0.0038365447
0000e0 56 31 18 3b b8 7c 1c 3b d4 d6 08 3c ca 3e 43 3c
       0.0023222766 0.002387805 0.008352 0.011916826
0000f0 3b fc 3d bc 31 57 f4 3a cb eb 12 bc 85 95 2d 3c
       -0.011595781 0.0018641708 -0.00896735 0.01059473
000100 c6 69 20 3c 5a 4e 8c 3a 18 bc 95 3b 85 6d da 3b
       0.009790843 0.0010704503 0.0045695417 0.006665888
000110 fe 69 6a bb 5a 79 14 3c 19 9d 97 bb de 82 cf bb
       -0.0035768743 0.009062136 -0.004626882 -0.0063327393
000120 86 7b 3c 3b 8a c5 19 3c 78 ff 06 3c 08 79 5a bc
       0.002876015 0.009385476 0.008239619 -0.01333452
000130 c4 93 8b 3b 4b 38 b0 bb e9 d8 18 3c de c2 ca 37
       0.0042595584 -0.0053778044 0.009329059 2.4171019e-05
000140 d6 32 1b bb e7 d4 57 3c e7 2c 18 bc 73 b9 fa 3b
       -0.0023681424 0.0131733185 -0.009288049 0.007651502
000150 2d c8 b8 bb 81 fc cc 3b 35 eb 7b bb 8d 27 38 bc
       -0.005639097 0.0062556867 -0.0038439755 -0.011239898
000160 db 1a 44 bc ca 48 11 3c 62 30 92 3b 52 3d 2f 3c
       -0.0119692935 0.008867452 0.004461334 0.010695772
000170 1c a3 fd bb 3d c9 c6 bb bb 51 ad bb 57 fb dc 3a
       -0.0077403914 -0.00606647 -0.005289284 0.0016859573
000180 aa 63 3f bc 5d 7a 24 bc 40 c9 39 ba 11 bc 98 bb
       -0.011681477 -0.010038939 -0.00070871785 -0.004661091
000190 fe 10 0b 3c 1e 84 a8 3b eb 56 c7 ba 4a ca 43 bb
       0.008487938 0.0051427027 -0.0015208399 -0.0029875212
0001a0 bc ee 1e 3c 71 3e d4 bb 3e 28 1d bc 3a 87 cc 3b
       0.009700473 -0.00647717 -0.009592114 0.006241706
0001b0 a0 89 dc b9 15 89 1a 3c 19 e7 23 bc 61 db aa 38
       -0.00042064209 0.009432097 -0.010003828 8.147094e-05
0001c0 d3 85 5d 3c ef 44 9e ba a7 48 20 bc 13 bd ce 3b
       0.013520676 -0.0012074987 -0.009782947 0.0063091605
0001d0 58 02 f2 3b 1f b2 0b 3c da e2 0f bc a4 0c 06 bb
       0.0073855333 0.008526354 -0.008782113 -0.0020454312
0001e0 b8 46 1e bb 95 44 4f 3c 80 ab 6a bb 29 74 24 bc
       -0.0024151038 0.012650629 -0.0035807788 -0.01003746
0001f0 4c ad 2c bc 05 e9 bc bb 13 c1 10 3b 87 47 06 3c
       -0.010539364 -0.005765083 0.0022087737 0.008195764
000200 f7 b2 02 3c f8 5f 35 bc a6 aa 67 3b 3c eb 17 bc
       0.007977239 -0.011070244 0.0035349517 -0.009272393
000210 94 7c 18 3c ce f1 bd bb 0f ea 55 3c e7 18 b4 bb
       0.0093070455 -0.0057966476 0.013056292 -0.0054961327
000220 38 c6 66 3c 39 7c 23 3c 97 b0 13 3b 79 aa ff 3b
       0.014085345 0.009978347 0.0022535676 0.0078023043
000230 9e 41 87 bb 15 47 d0 3a 77 88 aa bb 36 2c 1c bb
       -0.004127695 0.0015890325 -0.005204256 -0.0023830063
000240 8a 6f 36 bc 02 80 2a bc c9 0a 5e 39 65 f8 5d 3c
       -0.011134991 -0.010406496 0.00021175588 0.013547991
000250 b3 69 bc bb 12 cf 14 3c c0 b1 03 ba f2 18 16 bc
       -0.005749905 0.009082573 -0.000502374 -0.009161221
000260 80 c5 b7 bb b1 e1 1c bc 36 e6 fb 3b 36 14 58 3c
       -0.0056082606 -0.009575293 0.0076873554 0.013188412
000270 84 11 03 bb 4e 8c bb bb 87 37 e9 bb c5 88 4f 3c
       -0.0019999454 -0.0057235127 -0.007117215 0.012666886
000280 dc 64 8e 3a 06 33 00 3c 24 8a fd 3b d9 81 45 bc
       0.0010863799 0.007824665 0.007737415 -0.012054884
000290 75 2c 91 3b 31 f5 07 bc fb 67 68 3c 17 2b f3 3b
       0.0044303485 -0.008298204 0.014184947 0.007420908
0002a0 db 37 1b 3b 04 2c 2e bc 2a b0 57 bb d8 0b 2f bc
       0.0023684416 -0.010630611 -0.0032911398 -0.010683976
0002b0 05 72 06 bc db 25 80 b9 a3 4b bf 3b 49 06 21 bc
       -0.008205895 -0.00024442267 0.005837874 -0.009828159
0002c0 0c 9a 92 bb ac 28 9b bb fc c9 6f bb d5 56 35 bc
       -0.00447393 -0.004735073 -0.0036588898 -0.011068066
0002d0 fb 36 30 bc fc d2 d5 3a 10 2d a4 3a 82 48 06 3c
       -0.010755296 0.0016313489 0.0012525637 0.008195998
0002e0 63 c2 9b 3b b8 18 19 bc a9 b2 8b bb 3c 48 d4 3b
       0.0047533973 -0.009344272 -0.0042632413 0.0064783376
0002f0 f8 96 5b bc 14 ba 9a bc cf 28 52 3a 17 46 60 bc
       -0.013402693 -0.018887557 0.0008016945 -0.013688586
000300 6a fe 2f bc dd 8a 50 bc 8d d9 5e bc e3 d7 ba bb
       -0.010741809 -0.01272842 -0.013601673 -0.0057020052
000310 ff 3f 01 3c cb c8 52 bc 08 18 15 bc d6 a1 02 bc
       0.007888793 -0.012865256 -0.009099968 -0.007973155
000320 f7 a7 e4 bb 24 0f 9e b7 81 f7 28 bb 50 cd 9a ba
       -0.006978031 -1.8842118e-05 -0.002578229 -0.0011810455
000330 38 41 13 bc 02 af 8b bc 26 13 65 3a 62 75 0a 3c
       -0.008987717 -0.017051224 0.000873851 0.008450838
000340 b6 9b cb bb 94 98 e2 bb a0 ba fb ba 5b d6 41 bc
       -0.0062136305 -0.0069151614 -0.0019205399 -0.0118308915
000350 e3 c9 63 3b d4 a6 8c bc 30 b2 59 bc 3c 25 8d bc
       0.0034757785 -0.017169394 -0.013287112 -0.017229669
000360 60 97 51 bb a2 91 28 b9 55 23 28 ba f9 61 b0 ba
       -0.0031981096 -0.00016075981 -0.0006413956 -0.0013456933
000370 3e f0 a9 bb 20 a8 c7 3b d7 55 48 3b 28 3a 84 bb
       -0.00518611 0.00609304 0.0030568743 -0.004035253
000380 a1 f6 63 bb 2d 97 3b bc 28 88 10 3c 59 a2 e1 3a
       -0.0034784453 -0.011449617 0.008821525 0.0017214521
000390 d5 a9 d7 b9 b7 8d 2e bc 58 2b d8 bb 40 21 ce bb
       -0.0004113453 -0.010653905 -0.006596964 -0.006290585
0003a0 2d 39 17 3c 32 35 10 3c 23 88 53 3c 5c 57 1f bc
       0.00922994 0.008801745 0.0129108755 -0.009725418
0003b0 89 a0 dc 3b b8 ae 35 3c d9 53 3c 3c 14 a5 97 bb
       0.0067330045 0.0110890195 0.0114946 -0.004627833
0003c0 bc ab c0 3b 2d e9 7f bb 9e 4c 96 3b 1c e5 f9 3b
       0.0058798473 -0.0039048896 0.00458677 0.007626189
0003d0 f3 c8 4f ba ed 13 a8 3b 6a 2f 0f 3c 98 bd c4 bb
       -0.0007926367 0.0051293285 0.008739332 -0.0060040466
0003e0 46 4c 00 bc 32 89 dd ba 47 f4 0e bc 76 9e b7 3b
       -0.007830685 -0.0016901849 -0.008725232 0.005603607
0003f0 12 e0 c7 39 68 13 04 bb d3 da f3 bb 74 6b 80 3b
       0.00038123183 -0.0020153169 -0.0074418574 0.0039190594

fully.bias f4 [10]
000000 b7 cb ad bb 25 8c f2 bc 43 e7 50 3c 5d cf 14 3c
       -0.0053038257 -0.029607842 0.01275045 0.009082642
000010 28 c7 cd 3c e3 07 b2 3b 42 57 83 3c 28 c4 2c bc
       0.02511938 0.005433069 0.016032819 -0.010544814
000020 b9 cc 98 38 25 3b 79 bc
       7.2860574e-05 -0.015211855
